weights/simpleCNN/last.pth (torch, 259719 bytes, 10 tensors)

conv1.weight f4 [6, 3, 5, 5]
0	0x3e6888c7	0.22708426
1	0x3ea72929	0.3264859
2	0x3eaec7f1	0.34136918
3	0x3e181a45	0.14853771
4	0x3d94e37e	0.07269953
5	0x3e419756	0.18905386
6	0x3eba3cb7	0.36374447
7	0x3e675bfd	0.22593684
8	0x3e0cdd24	0.13756233
9	0xbcfb1f5a	-0.030654598
10	0x3eedb1df	0.46424767
11	0x3ed967e9	0.4246209
12	0x3ecd24b4	0.40067065
13	0xbd8f0aac	-0.069844574
14	0xbd8c1839	-0.068405576
15	0x3edcb048	0.43103242
16	0x3f12e473	0.57379836
17	0x3e9ca730	0.30596304
18	0x3e24d434	0.16096574
19	0xbcc799e4	-0.024365373
20	0x3e8f7757	0.28020737
21	0x3ed6fc1b	0.41989216
22	0x3ef8cd5c	0.48594177
23	0x3d851d6e	0.06499754
24	0xbe02a1c8	-0.12757027
25	0x3e04f641	0.12984563
26	0x3e9d76d9	0.30754736
27	0x3ea32a11	0.31868032
28	0x3e3ab9f8	0.18235004
29	0x3cceecea	0.025259454
30	0x3ebabb52	0.3647104
31	0x3ee0f9f9	0.43940714
32	0x3e7f4354	0.24928027
33	0xbd2cce6b	-0.042189043
34	0xbe012c2f	-0.12614511
35	0x3ec7257e	0.38895792
36	0x3f2533bf	0.64532083
37	0x3e978867	0.29596254
38	0x3d4de3b4	0.050265983
39	0x3c8e88d7	0.017399235
40	0x3eca5759	0.39519766
41	0x3f1d74dd	0.61506444
42	0x3e9f8461	0.31155685
43	0xbcd2f301	-0.025750639
44	0xbdc5e167	-0.09662133
45	0x3e2bf9b4	0.16794473
46	0x3f123c55	0.5712331
47	0x3ecb1211	0.3966222
48	0x3e505d88	0.2034818
49	0x3d44b0c6	0.048020147
50	0x3da85218	0.08218783
51	0x3edecfe9	0.43517998
52	0x3e8b22bb	0.27174935
53	0x3de68001	0.112548836
54	0xbd06b0fb	-0.032883625
55	0x3ec641ea	0.38722163
56	0x3f11c90e	0.5694741
57	0x3e9c7ba4	0.3056308
58	0xbcf9aeb3	-0.03047881
59	0xbdafd844	-0.08586171
60	0x3f05d862	0.522833
61	0x3f21f31c	0.6326158
62	0x3ebed287	0.37269995
63	0x3e28699a	0.16446534
64	0xbcb84122	-0.022491995
65	0x3efca8d8	0.49347568
66	0x3f0336d4	0.51255536
67	0x3f021821	0.5081807
68	0x3e06ec6b	0.13176124
69	0xbdbc3a29	-0.09190781
70	0x3e744bdc	0.23857063
71	0x3f047937	0.5174746
72	0x3eaf605d	0.34253207
73	0x3de0649b	0.10956689
74	0x3ddb6efc	0.10714528
75	0xbda9d9c4	-0.082934886
76	0xbe838aa1	-0.25691703
77	0xbe3bfec7	-0.18358909
78	0xbd9e4c2a	-0.07729371
79	0xbe0428d9	-0.12906207
80	0xbe713920	-0.23556948
81	0xbea6188f	-0.32440612
82	0xbe9bb36a	-0.3041032
83	0xbe29f243	-0.16596322
84	0xbdfe9740	-0.124311924
85	0xbea30be2	-0.31845003
86	0xbea90454	-0.33011115
87	0xbec00528	-0.37503934
88	0xbeabaa82	-0.33528525
89	0xbe8f517e	-0.2799186
90	0xbe98f966	-0.29877776
91	0xbef880a4	-0.48535645
92	0xbefd7309	-0.49501827
93	0xbed7fa9f	-0.42183396
94	0xbe8d4fb1	-0.27599862
95	0xbebc7239	-0.36805895
96	0xbec5f8a7	-0.3866627
97	0xbe972200	-0.29518127
98	0xbea1d49c	-0.3160752
99	0xbec8b097	-0.39197227
100	0xbe8d22f4	-0.2756573
101	0xbe264529	-0.1623732
102	0xbe31759b	-0.17330019
103	0xbdcfd607	-0.10148244
104	0xbe4a0a8d	-0.19730587
105	0xbe66727b	-0.22504608
106	0xbe9b24f4	-0.3030163
107	0xbe9ad85c	-0.30243194
108	0xbeab6d93	-0.33482036
109	0xbd770c5f	-0.060314532
110	0xbe556488	-0.20839131
111	0xbeced5e3	-0.40397558
112	0xbe995196	-0.29945058
113	0xbee8bdbf	-0.45457265
114	0xbe1dcde7	-0.15410577
115	0xbe5fc320	-0.21851778
116	0xbef6f3b5	-0.4823281
117	0xbe9ec16f	-0.31006953
118	0xbe9a5673	-0.3014408
119	0xbebec2e5	-0.37258068
120	0xbeb1db18	-0.34737468
121	0xbe8c7d1a	-0.27439195
122	0xbef56bc2	-0.47933775
123	0xbeb95848	-0.36200166
124	0xbedbb82e	-0.42913955
125	0xbe832093	-0.2561079
126	0xbe5f3878	-0.21798885
127	0xbc94a5f9	-0.018145548
128	0xbdde9ca1	-0.10869718
129	0xbdbeb47b	-0.09311768
130	0xbe287ef1	-0.16454674
131	0xbe421780	-0.18954277
132	0xbeb49b88	-0.3527491
133	0xbe2fe5a5	-0.17177446
134	0xbe2d500d	-0.16925068
135	0xbe95396d	-0.29145375
136	0xbed8d1a6	-0.4234745
137	0xbe952339	-0.29128435
138	0xbebf7326	-0.3739254
139	0xbe72f5af	-0.23726533
140	0xbe6ed457	-0.23323189
141	0xbee04fd7	-0.43810913
142	0xbedbdc15	-0.42941347
143	0xbea43455	-0.32071176
144	0xbe87c83a	-0.26519948
145	0xbe1b0736	-0.1513947
146	0xbea2e636	-0.31816262
147	0xbe8d849f	-0.27640244
148	0xbece2fc5	-0.4027082
149	0xbe4cb591	-0.19991137
150	0xbe6cf3c8	-0.2313987
151	0xbe8ec924	-0.27887833
152	0xbe7122d5	-0.23548444
153	0xbe08f714	-0.13375503
154	0xbe5974c8	-0.21235955
155	0xbde1630f	-0.11005222
156	0xbe9df8a6	-0.30853766
157	0xbecdc90a	-0.40192443
158	0xbeb32b5f	-0.34994027
159	0xbebfad94	-0.37437117
160	0xbded6473	-0.11591425
161	0xbe64bc9d	-0.22337575
162	0xbed95c04	-0.42453015
163	0xbf16d123	-0.5891287
164	0xbec8b054	-0.39197028
165	0xbd9807f9	-0.07423396
166	0xbea28607	-0.3174288
167	0xbf12392b	-0.5711848
168	0xbf148aba	-0.5802418
169	0xbf04115a	-0.51588976
170	0xbe635770	-0.22201324
171	0xbe773254	-0.24140292
172	0xbf077c76	-0.5292429
173	0xbede6e5a	-0.43443567
174	0xbef1f6da	-0.47258645
175	0xbe71f3b7	-0.23628126
176	0xbe2c40d5	-0.16821606
177	0xbe8274bf	-0.25479695
178	0xbe6dfc51	-0.23240782
179	0xbc8841e6	-0.016632985
180	0xbdff2d55	-0.12459818
181	0xbe4a1642	-0.19735053
182	0xbe9577f7	-0.29193088
183	0xbeba2206	-0.36354083
184	0xbe72d510	-0.2371409
185	0xbdb9c6be	-0.0907111
186	0xbea17602	-0.31535345
187	0xbf093e02	-0.5361024
188	0xbecb50bc	-0.39710033
189	0xbee82946	-0.4534399
190	0xbe4abac5	-0.1979781
191	0xbe8beb0f	-0.27327773
192	0xbedafac7	-0.42769453
193	0xbeec074f	-0.46099326
194	0xbf01bbfa	-0.50677454
195	0xbd7f2df5	-0.062299687
196	0xbe91f078	-0.28503776
197	0xbecc0ca6	-0.398534
198	0xbf03128f	-0.51200193
199	0xbeb664be	-0.35623735
200	0xbe06b79b	-0.13155977
201	0xbd658293	-0.05603273
202	0xbe6a7d05	-0.22899254
203	0xbdb147b3	-0.08656254
204	0xbc324073	-0.010879624
205	0xbe67bc48	-0.22630417
206	0xbe23ca82	-0.1599522
207	0xbea24b9a	-0.31698304
208	0xbe47c059	-0.19506969
209	0xbe330a07	-0.17484294
210	0xbe6f2a36	-0.23355946
211	0xbe9a9338	-0.30190444
212	0xbf07c9a5	-0.5304206
213	0xbeaf4628	-0.34233212
214	0xbe8b48fc	-0.2720412
215	0xbe1e989c	-0.15487903
216	0xbe8e9afe	-0.27852625
217	0xbeed4b8a	-0.46346694
218	0xbedeba32	-0.4350143
219	0xbf096dfd	-0.53683454
220	0xbe356f7b	-0.17718308
221	0xbe42381f	-0.18966721
222	0xbed04fcf	-0.4068589
223	0xbee3b728	-0.44475675
224	0xbf0a7614	-0.5408642
225	0xbe6a4495	-0.22877724
226	0xbe2eb27b	-0.17060272
227	0xbe42a363	-0.1900764
228	0x3cba5c9c	0.022749238
229	0xbd23dd08	-0.040005714
230	0xbe6de346	-0.23231229
231	0xbec95bd9	-0.39327887
232	0xbe5de64b	-0.21669881
233	0xbe9b4ab5	-0.30330434
234	0xbd883e3b	-0.066524945
235	0xbe637f3e	-0.22216508
236	0xbea2714f	-0.31727073
237	0xbee9aab9	-0.45638064
238	0xbead8ebf	-0.3389797
239	0xbeaf29c6	-0.34211558
240	0xbe8f2147	-0.27955076
241	0xbf0c3917	-0.5477461
242	0xbf32b933	-0.6981384
243	0xbef70f7a	-0.48253995
244	0xbec593cb	-0.3858932
245	0xbe9c3232	-0.30507046
246	0xbf12ff56	-0.5742086
247	0xbf288bed	-0.6583851
248	0xbf07fefc	-0.5312345
249	0xbee9ca4d	-0.45662156
250	0xbd666d48	-0.056256562
251	0xbe4512db	-0.19245474
252	0xbd2e0ad9	-0.042490814
253	0xbd19f0b1	-0.037583057
254	0xbc161829	-0.009161034
255	0xbe33fa15	-0.17575867

conv1.bias f4 [6]
0	0x3d9e2c06	0.077232406
1	0x3d9c4af9	0.076314874
2	0x3d42d409	0.047565494
3	0x3dd7eeed	0.10543618
4	0x3f196336	0.5991701
5	0x3d5bc51e	0.053654782

conv2.weight f4 [16, 6, 5, 5]
0	0x3ca7e10f	0.020493058
1	0xbd1677d8	-0.036735386
2	0x3e253cf1	0.16136529
3	0xbd9b7a8f	-0.075917356
4	0xbbda4174	-0.0066606347
5	0xbc87f53b	-0.016596427
6	0x3d8282e0	0.06372619
7	0x3e21ffac	0.15820187
8	0x3d2ca6f8	0.04215142
9	0x3d9e733c	0.07736823
10	0xbc702ba4	-0.014658842
11	0x3db26b3b	0.08711859
12	0x3e0d7480	0.13813972
13	0x3e12abfe	0.14323422
14	0x3d5af4fd	0.053456295
15	0xbcdac5d3	-0.026705658
16	0x3dd0f23e	0.10202454
17	0x3de80eb0	0.113309264
18	0x3d0cc876	0.034370862
19	0x3de24866	0.11048965
20	0xbc0b3026	-0.008495366
21	0xbc628f25	-0.013828074
22	0xbd61e266	-0.05514755
23	0xbe71d420	-0.23616076
24	0xbe291c13	-0.16514616
25	0xbd9ea493	-0.07746234
26	0xbd260682	-0.04053355
27	0x3bab7bfe	0.005233287
28	0x3db76673	0.089550875
29	0x3df98547	0.12183624
30	0x3c2d7b54	0.010588486
31	0xbdff72ca	-0.12473066
32	0xbde49d5e	-0.11162828
33	0xbda02d07	-0.07821088
34	0x3d899512	0.06717886
35	0x3d57a673	0.052648973
36	0xbdb973f6	-0.09055321
37	0xbd966ac7	-0.07344585
38	0xbda26d44	-0.07930997
39	0xbd0be1a2	-0.034150727
40	0x3dd681b2	0.10473956
41	0xbc01965a	-0.007909382
42	0xbcaaba40	-0.020840764
43	0xbddf6e22	-0.10909678
44	0x3cfdc90b	0.030979654
45	0x3dd5521a	0.1041605
46	0x3e5a50c0	0.21319866
47	0x3e83d168	0.25745702
48	0x3da6a0e3	0.081361555
49	0xbc44494d	-0.011980367
50	0xbd577ce4	-0.05260934
51	0xbdabd8a9	-0.08390934
52	0xbd3658a3	-0.044518124
53	0x3ccb4b44	0.024816163
54	0x3cb2e26d	0.021836484
55	0xbd8e650f	-0.06952869
56	0xbd7b6fda	-0.061385967
57	0xbda17680	-0.0788393
58	0xbe10e89f	-0.14151238
59	0x3a97decd	0.0011586786
60	0xbd6971b8	-0.056993216
61	0x3c79dc69	0.015250304
62	0xbdbfa3fa	-0.09357448
63	0xbe331dd5	-0.17491849
64	0xbd9ff732	-0.07810821
65	0xbc1d9701	-0.009618522
66	0xbc134d67	-0.008990622
67	0x3d6e4a0f	0.058176097
68	0xbe05d84e	-0.13070795
69	0xbd51636e	-0.051120214
70	0x3d7f7a2f	0.062372383
71	0x3e208d64	0.15678936
72	0x3e9b0844	0.30279744
73	0x3d7a8c22	0.061168797
74	0x3d898270	0.06714332
75	0x3d5dd36f	0.054156717
76	0xbe163960	-0.14670324
77	0xbdba4301	-0.09094811
78	0x3d21796e	0.039422445
79	0x3d846526	0.06464605
80	0xbd7f2141	-0.062287573
81	0xbbdda66c	-0.006764224
82	0xbdabb262	-0.08383633
83	0xbd413310	-0.047167838
84	0xbd677fd5	-0.056518395
85	0x3b876f36	0.0041331304
86	0xbd9d76dc	-0.07688686
87	0xbe22f28d	-0.15912838
88	0xbe25f48a	-0.16206565
89	0xbde642f5	-0.1124324
90	0xbc7327d2	-0.014841037
91	0x3d8531e8	0.065036595
92	0x3d94ddb9	0.07268853
93	0xbd0d5853	-0.03450806
94	0xbd83aa55	-0.06428973
95	0x3dfd9988	0.123827994
96	0x3df12d9f	0.1177628
97	0x3e9da992	0.30793434
98	0x3e7b4e15	0.24541505
99	0x3db5f979	0.08885474
100	0xbd6ed843	-0.058311712
101	0x3e42ace5	0.19011267
102	0x3e663b13	0.22483473
103	0x3df934f8	0.12168306
104	0x3d05c86e	0.032661848
105	0xbe4e14c1	-0.20125104
106	0x3da9fed1	0.083005555
107	0x3e7828f6	0.24234375
108	0x3d8d6e58	0.06905812
109	0x3e0cfc41	0.13768102
110	0xbe04f440	-0.12983799
111	0x3c529bcd	0.012854529
112	0x3d91b48d	0.071145155
113	0x3d72e131	0.05929679
114	0x3d5bdfcd	0.05368023
115	0x3d42266d	0.047399927
116	0xba532382	-0.00080543023
117	0xbd5803ae	-0.052737884
118	0xbe4a068f	-0.19729064
119	0x3dc298da	0.0950181
120	0x3de514aa	0.11185582
121	0x3dbc0b28	0.091818154
122	0xbd1714f6	-0.036885224
123	0xbe8aa61c	-0.27079856
124	0xbe32db2c	-0.1746642
125	0x3dbb058d	0.09131918
126	0x3e1acb84	0.15116698
127	0x3e29e8f5	0.16592772
128	0xbd072602	-0.03299523
129	0xbd07d136	-0.033158503
130	0x3dbecc56	0.09316318
131	0x3e2629b1	0.16226842
132	0x3e4e7a81	0.20163919
133	0x3e19d72f	0.15023492
134	0x3ca069b2	0.01958165
135	0x3dc19282	0.09451772
136	0x3d89e7e1	0.067336805
137	0x3e69db82	0.22837642
138	0x3e59b562	0.21260598
139	0x3dc85e47	0.09783607
140	0xbe111cd0	-0.14171147
141	0xbb70a258	-0.0036717858
142	0xbcb0aa49	-0.021565573
143	0x3dcd64cd	0.10028992
144	0x3b26e40b	0.0025465514
145	0xbe46c2d2	-0.19410256
146	0xbe3bb1cd	-0.18329544
147	0xbe86e511	-0.2634664
148	0xbe5324ef	-0.20619558
149	0xbd7d4fd8	-0.061843723
150	0x3db5957d	0.08866403
151	0x3dfe2793	0.12409892
152	0x3da43365	0.08017615
153	0xbdfc91b7	-0.123324804
154	0xbd08a03a	-0.03335593
155	0x3d23a7b2	0.03995485
156	0x3e050b70	0.12992644
157	0xbdaf6171	-0.08563507
158	0xbd201b8d	-0.039088774
159	0xbe0f2ad4	-0.13981181
160	0x3cbf5aba	0.023358691
161	0x3d264bb8	0.040599555
162	0x3ada7bd9	0.001666899
163	0xbd7f0838	-0.062263697
164	0xbe2cfc00	-0.16893005
165	0xbd02cf00	-0.03193569
166	0xbd7cfedc	-0.06176649
167	0xbdb0756c	-0.086161464
168	0xbdc726b7	-0.09724181
169	0x3c3ae13e	0.011406241
170	0x3cf98538	0.030459031
171	0xbe01e8a6	-0.12686405
172	0x3d0f4437	0.034977164
173	0x3d9a0ef7	0.075223856
174	0xbd84e33f	-0.06488656
175	0xbd01b7af	-0.031669315
176	0xbddcdd56	-0.10784404
177	0xbd53f8cb	-0.05175094
178	0xbb1e7f04	-0.0024184594
179	0x3d3f9e69	0.04678193
180	0xbc093a96	-0.008375784
181	0x3b1ba458	0.002374908
182	0xbd9c5b2d	-0.07634578
183	0x3d6ee4c2	0.05832363
184	0xbcca16f7	-0.024669154
185	0x3d9b48dc	0.07582256
186	0x3d8dc285	0.06921867
187	0x3d3b160c	0.045675322
188	0x3ca6819b	0.020325473
189	0xbc633ee3	-0.013869974
190	0x3d1b5eea	0.037932314
191	0xbd086213	-0.033296656
192	0x3d97f9bb	0.07420679
193	0x3c1675d5	0.009183367
194	0x3d823a64	0.063587934
195	0x3d3aa63d	0.045568693
196	0x3dbb39c8	0.0914188
197	0xbdcc56bb	-0.0997748
198	0xbdc9c252	-0.09851517
199	0xbd50a3bb	-0.050937396
200	0xbe0f54f9	-0.13997258
201	0xbe1c5c2c	-0.15269536
202	0x3cf8f400	0.030389786
203	0x3d0c859a	0.0343071
204	0x3cd7c2fd	0.026338095
205	0xbd654e56	-0.05598291
206	0xbdc94727	-0.09828024
207	0x3d7da452	0.061924286
208	0x3da84fd7	0.08218353
209	0x3d7c49ba	0.06159375
210	0x3d90cdb7	0.07070487
211	0x3d78b9d1	0.060724083
212	0xbb4f11ab	-0.0031596224
213	0xbb36f912	-0.0027919454
214	0xbc115398	-0.008870028
215	0x3d73782b	0.059440773
216	0x3d2b9f2b	0.04189984
217	0x3d9ebcab	0.07750829
218	0xbd76276d	-0.060096193
219	0xbb81a12f	-0.003955982
220	0x3d84cb04	0.06484035
221	0x3d39776f	0.045279916
222	0x3d2cf2c4	0.042223707
223	0x3c5da215	0.013527413
224	0xbd347d30	-0.0440647
225	0xbe0bd9b6	-0.13657269
226	0xbdd3abc5	-0.10335497
227	0xbd90c913	-0.07069602
228	0x3daedb16	0.08537881
229	0x3c9ca9e5	0.01912398
230	0x3c864976	0.01639245
231	0xbd5f838b	-0.05456881
232	0xbd4b81a1	-0.04968417
233	0x3d32f5cf	0.043691453
234	0x3d35e176	0.04440447
235	0x3d9cd578	0.076579034
236	0x3d77ad2b	0.06046788
237	0x3d3aa5a4	0.045568123
238	0xbcc9cbdb	-0.024633339
239	0xbb89e093	-0.0042076795
240	0x3d19afb2	0.03752107
241	0xbce6920a	-0.028145809
242	0x3dd8103a	0.1054997
243	0xbd3e248b	-0.04642157
244	0x3d99cb77	0.07509511
245	0x3d0fd7b3	0.035117816
246	0x3d32cfdf	0.043655273
247	0xbd94bd4f	-0.0726267
248	0xbd58ebfd	-0.05295943
249	0xbdb67920	-0.089098215
250	0xbdc86b9a	-0.09786148
251	0xbc8e8775	-0.017398575
252	0xbdf5819d	-0.119876124
253	0xbd0e1b01	-0.03469372
254	0xbc1e3219	-0.009655499
255	0xbdc37e03	-0.09545519

conv2.bias f4 [16]
0	0xbd578b0e	-0.052622847
1	0xbc07830a	-0.008270988
2	0xbd588abc	-0.052866682
3	0xbe16973a	-0.14706126
4	0x3d0a2c4b	0.033733647
5	0xbd80b198	-0.06283873
6	0xbd82923f	-0.063755505
7	0xbcce2e44	-0.025168546
8	0x3b29301e	0.0025816034
9	0xbc6caaa5	-0.014444982
10	0xbd8af7b8	-0.0678553
11	0xbc7e4e9e	-0.0155216735
12	0x3c1ef8b8	0.009702854
13	0xbd32557d	-0.04353856
14	0x3cef5999	0.029217528
15	0xbb02e229	-0.0019971228

fc1.weight f4 [120, 400]
0	0xbd06516f	-0.032792505
1	0x3c3f7225	0.011684929
2	0xbbcf14db	-0.006319625
3	0x3ca5a89d	0.020222003
4	0xbcc367cb	-0.023853203
5	0x3bf310bd	0.007417767
6	0x3b7e67df	0.0038819236
7	0x3d302e3a	0.043012835
8	0x3b5d83cb	0.0033800479
9	0x3d0c3f0c	0.034239814
10	0x3d1fc56b	0.03900663
11	0x3d04f883	0.03246356
12	0xbd04b2ce	-0.032397084
13	0xbd1fa26e	-0.038973264
14	0xbc43b101	-0.0119440565
15	0x3d2c1063	0.042007815
16	0xbcdd841f	-0.02704054
17	0xbd06279c	-0.03275262
18	0x3d1150f2	0.035477586
19	0x3c871f21	0.016494336
20	0xbc7a5673	-0.0152794
21	0xbce02fab	-0.02736648
22	0xbc65bbef	-0.014021858
23	0x3c8272ae	0.015923824
24	0x3c815ada	0.015790392
25	0xbd15854f	-0.036504086
26	0xbd0ecf05	-0.034865398
27	0x39d6f243	0.0004099776
28	0x3c354946	0.011064833
29	0x3b734750	0.0037121363
30	0xbcf3a62f	-0.029742328
31	0x3d1b55a9	0.03792349
32	0x3c53b321	0.012921126
33	0x3cf7a52c	0.030230127
34	0xbc145ea0	-0.0090557635
35	0x3c6ab7a3	0.014326009
36	0xbd5e5128	-0.054276615
37	0x3a5997d6	0.00083005184
38	0xbd09ee72	-0.033674665
39	0xbc036ec3	-0.008022013
40	0xbd053de7	-0.032529738
41	0x3cdf03c5	0.027223477
42	0x3cdbe1a6	0.026840996
43	0xbd029923	-0.031884324
44	0xbd30cd84	-0.043164745
45	0xbcf65292	-0.03006867
46	0xbce619c1	-0.028088452
47	0x3d30e604	0.04318811
48	0xbd2996b0	-0.041403472
49	0x3c902a3d	0.017598266
50	0xbd589cd7	-0.05288395
51	0xbd1580e0	-0.036499858
52	0xbd30c92b	-0.0431606
53	0x3bad1c92	0.005282947
54	0x3c837aaf	0.016049711
55	0x3ce9c9c4	0.028538592
56	0x3c9bae01	0.01900387
57	0xbd19a979	-0.037515137
58	0xbd58e8b0	-0.052956283
59	0xbcb578b9	-0.022152292
60	0x3c8aa0fb	0.016922465
61	0xbc8b4a6a	-0.017003257
62	0xbd0dda34	-0.034631923
63	0x3d01c09a	0.03167782
64	0xbca3356b	-0.019922933
65	0xbc4573d7	-0.012051544
66	0x3cf04662	0.029330436
67	0x3d20f4c9	0.039295945
68	0x3d1270bb	0.03575204
69	0x3cfd4a1f	0.030919133
70	0x3c710a78	0.014711969
71	0xbc06d8c4	-0.008230392
72	0xbd5d8010	-0.054077208
73	0xbca3ed85	-0.02001072
74	0xbc85c427	-0.016328884
75	0x3c44a035	0.012001087
76	0x3cc43af2	0.023953889
77	0x3d15a729	0.03653637
78	0xbca46638	-0.020068273
79	0xbbe05650	-0.0068462268
80	0xbcca22f0	-0.024674863
81	0xbbc36e05	-0.005964043
82	0x3d152a6f	0.03641742
83	0xbc5c5c89	-0.0134497965
84	0xbca234f7	-0.019800646
85	0xbbc4140e	-0.005983836
86	0x3ae56476	0.0017501253
87	0x3b00095a	0.0019536824
88	0xbbbc8120	-0.0057526976
89	0xbb931097	-0.0044880616
90	0x3cada2f2	0.021195862
91	0xbd33e1a2	-0.043916352
92	0xbcd8ad3c	-0.026449792
93	0x3d11d928	0.035607487
94	0x3cb018d5	0.021496216
95	0xbba093c1	-0.004900426
96	0xbc358342	-0.011078658
97	0xbd469ba9	-0.048488293
98	0xbb894f54	-0.004190365
99	0xbc020fc8	-0.007938333
100	0xbd524667	-0.051336672
101	0xbd286057	-0.0411075
102	0xbc6e08ae	-0.014528437
103	0x3d221877	0.039574113
104	0xbd6a6fb3	-0.05723543
105	0x3ce7b620	0.028285086
106	0x3c76f495	0.015072961
107	0xbd420ce4	-0.047375575
108	0x3d1deb5f	0.038554545
109	0xbc6e17e5	-0.014532064
110	0x3b6f8254	0.0036546187
111	0xbd535bcd	-0.05160122
112	0x3cf328d5	0.029682556
113	0xbd4028ac	-0.046913788
114	0xbc1463bc	-0.009056982
115	0x3bf1e3e4	0.007381903
116	0x3c25db9e	0.010123162
117	0xbc119a44	-0.008886877
118	0xbcb27fcf	-0.02178946
119	0x3c926603	0.017870909
120	0x3c4ea7fc	0.012613293
121	0x3cbdaf7c	0.023154967
122	0x3d1cd69c	0.038290605
123	0xbce8b71c	-0.028407626
124	0xbb014c42	-0.001972929
125	0x3cfc7d66	0.030821513
126	0x3cfe8433	0.031068897
127	0xbb14a2e8	-0.0022680108
128	0xbd11772e	-0.03551405
129	0xbd418bde	-0.04725253
130	0xbcb87355	-0.022515932
131	0xbd26cbd9	-0.040721748
132	0xbd4cf226	-0.05003562
133	0xbcacf118	-0.021111056
134	0xbca43e6b	-0.020049294
135	0xbd013afd	-0.031550396
136	0xbd508efe	-0.050917618
137	0x3c02626a	0.007958034
138	0xbd49b892	-0.049248286
139	0x3bfca76b	0.0077103875
140	0xbd0d3830	-0.034477413
141	0xbcd55365	-0.026040742
142	0x3d059819	0.032615755
143	0xbd5b5d05	-0.053555507
144	0x3ca0043f	0.019533275
145	0xbd527290	-0.051378787
146	0xbd2f89dc	-0.042856082
147	0xbd4d7f7e	-0.050170414
148	0xbd224fd0	-0.039626896
149	0xbd3be0c1	-0.04586864
150	0x3c3cf6fb	0.011533494
151	0xbd56fad6	-0.05248531
152	0x3d2da585	0.04239418
153	0xbd273a70	-0.040827215
154	0xbc231707	-0.009954221
155	0xbcb93ac2	-0.022611026
156	0x3b7d315d	0.003863416
157	0xbc457707	-0.012052304
158	0x3ca9a290	0.020707399
159	0x3cbe3dbf	0.023222802
160	0xba709710	-0.00091777835
161	0x3cf9da3f	0.030499576
162	0x3be8abf2	0.0071005756
163	0xbd56e140	-0.05246091
164	0xbafa70e1	-0.0019107127
165	0xbcfd92f7	-0.030953867
166	0xbc8d1889	-0.017223613
167	0xbc7fdbe3	-0.01561639
168	0xbc5a7134	-0.013332654
169	0xbc988d59	-0.018622087
170	0xbc1c4599	-0.009538078
171	0xbbec4cb1	-0.0072112908
172	0xbc940c20	-0.018072188
173	0x3ccfd4f9	0.025370108
174	0x3c64a362	0.013954969
175	0x3d0387f3	0.032112073
176	0x3c861f48	0.016372338
177	0x3d165313	0.03670032
178	0xbd214767	-0.039374735
179	0x3b85d63b	0.004084376
180	0xbc1a2f88	-0.009410746
181	0x3b18728b	0.0023261632
182	0x39ef8ae1	0.00045689105
183	0xbbb97579	-0.005659756
184	0x3d1c69cc	0.038186833
185	0x3d065891	0.032799307
186	0x3d13a0eb	0.036042135
187	0x3b66718e	0.0035162899
188	0x3d24d677	0.040243592
189	0x3b7e70d1	0.0038824568
190	0xbd6607e5	-0.056159873
191	0x3d13887e	0.03601884
192	0x3d0e0887	0.0346761
193	0xbbfe1453	-0.0077538877
194	0xbd31952b	-0.04335515
195	0xbd4d13a7	-0.05006757
196	0xbd0fd577	-0.035115685
197	0xbcda927f	-0.026681183
198	0x3bf29ad3	0.0074037104
199	0xbd15d139	-0.036576483
200	0x3c90aa90	0.017659456
201	0x3d073ef3	0.033019017
202	0x3cb29482	0.02179933
203	0xbc1f0025	-0.009704624
204	0x3c8749d5	0.016514698
205	0xbd091461	-0.0334667
206	0x3b9dc8cb	0.004815196
207	0xbcac9a8e	-0.021069791
208	0xbd670c67	-0.056408312
209	0xbcad3414	-0.021142997
210	0xbcf46152	-0.029831562
211	0xbd2c412e	-0.042054348
212	0xbd3a38bb	-0.04546426
213	0x3c6e03b3	0.014527249
214	0x3c7360f0	0.014854655
215	0xbd325766	-0.04354038
216	0x3d17a7b3	0.037025165
217	0xbcda0cf7	-0.02661751
218	0x3d143126	0.036179684
219	0xbcaf75c9	-0.021418469
220	0x3d2ed8f7	0.042687383
221	0xbc9e5150	-0.019325882
222	0xbd23cfbd	-0.039993037
223	0xbcdcb446	-0.02694143
224	0xbc852c80	-0.01625657
225	0xbcdc6e14	-0.026907958
226	0x3c434df3	0.01192044
227	0xbd53460d	-0.051580478
228	0x3cde0bd1	0.027105244
229	0x3c9ae25a	0.018906761
230	0x3c8aed52	0.016958866
231	0xbd15e15a	-0.036591865
232	0xbd1ce119	-0.038300607
233	0x3c57a07e	0.013160823
234	0x3c8ca4c1	0.017168405
235	0x3d1e655d	0.038670886
236	0xbd541dfa	-0.0517864
237	0x3bc838af	0.006110273
238	0xbc357b09	-0.011076697
239	0xbc3562a0	-0.011070877
240	0xbce9ddee	-0.028548207
241	0x3ccff780	0.025386572
242	0x3d1710a2	0.036881097
243	0x3ba7bb27	0.005118746
244	0x3c3a8a9a	0.011385584
245	0x3d0d419f	0.03448641
246	0xbc835e5a	-0.016036201
247	0xbd29efb2	-0.041488357
248	0xbb91c1f4	-0.00444817
249	0x3cc9839f	0.024598895
250	0xbb1c68d8	-0.0023866203
251	0xbd2c03cd	-0.041995812
252	0x3cc8f2ad	0.02452978
253	0x3c5c8175	0.013458599
254	0x3ca6acc4	0.020346053
255	0xbd070b26	-0.032969616

fc1.bias f4 [120]
0	0xbcea6252	-0.028611336
1	0xbb7c3c0d	-0.0038487941
2	0xbbd17ccd	-0.0063930512
3	0xbc9d46fe	-0.01919889
4	0xbd22a6cd	-0.039709855
5	0xb9132fe7	-0.00014036857
6	0x3cc94288	0.024567857
7	0x3ab81451	0.0014044141
8	0xbb701506	-0.0036633625
9	0xbbd7b3d6	-0.0065827174
10	0x3d04d724	0.032431737
11	0x3d83ef22	0.06442095
12	0x3b971218	0.0046103112
13	0xbd20f52e	-0.03929632
14	0xbd361f43	-0.044463407
15	0x3bfa410c	0.0076371487
16	0x3c7fa43a	0.0156031195
17	0x3c28f8a2	0.010313185
18	0xbd0edcdf	-0.034878608
19	0xbd011e75	-0.031523187
20	0x3d0918fb	0.03347109
21	0x3d0ab07e	0.033859722
22	0x3c03b295	0.008038183
23	0x3d14307e	0.03617906
24	0xbb18ec7c	-0.0023334315
25	0x3cc4bceb	0.024015864
26	0x3d23f618	0.040029615
27	0x3c2a3597	0.010388753
28	0x3cf1fef2	0.029540513
29	0xbc4d5ee5	-0.012534832
30	0xbc60e3a6	-0.013726151
31	0xbc96ae2e	-0.018393602
32	0xbce211a3	-0.0275963
33	0x3c20efdc	0.009822812
34	0xbd607489	-0.054798637
35	0xbd0c21d7	-0.03421196
36	0xbb889779	-0.0041684476
37	0x3d4d208e	0.050079875
38	0x3d048f89	0.03236345
39	0xbcd422c1	-0.025895478
40	0xbc9447a8	-0.018100575
41	0xbbea0f5a	-0.0071429433
42	0x3cbe9336	0.023263555
43	0xbbb40f3e	-0.005494981
44	0xbd37c44c	-0.044864938
45	0x3c9f80b7	0.019470556
46	0x3d32cac4	0.043650404
47	0x3d43b23f	0.04777741
48	0xbd0dfc1d	-0.034664262
49	0x3d2f9a79	0.042871926
50	0x3ccdc515	0.02511839
51	0x3d567f43	0.05236746
52	0x3cad970b	0.021190187
53	0xbbcb99f3	-0.0062134205
54	0x3d0e1625	0.034689087
55	0xbd0279d5	-0.03185447
56	0xbc82e950	-0.015980393
57	0x3d233cc4	0.039852872
58	0x3ce99fbd	0.028518552
59	0xbd205420	-0.039142728
60	0xbcac43fd	-0.021028513
61	0x3c9228ec	0.017841779
62	0xbcf8378c	-0.030299924
63	0xbc68c244	-0.014206473
64	0x3ccea471	0.025224896
65	0xbb283836	-0.002566827
66	0x3ca7e2ac	0.020493828
67	0xbcc5f997	-0.024166865
68	0x3d0ec95c	0.03486
69	0xbcf0d737	-0.029399497
70	0x3d1d7a2a	0.038446583
71	0x3d0d8e00	0.03455925
72	0x3d82f35c	0.06394073
73	0x3cb59b51	0.022168787
74	0x3c8ae290	0.016953737
75	0x3cff348b	0.031152984
76	0xbc8b9035	-0.017036537
77	0x3c0c656d	0.008569104
78	0x3d3b911f	0.045792695
79	0x3d307e10	0.043088973
80	0xbbeac1b2	-0.0071642036
81	0xbd1e502e	-0.038650684
82	0xbd1a4cbc	-0.037670836
83	0xbaf36389	-0.0018569092
84	0x3d59422b	0.05304162
85	0xbd58c325	-0.05292048
86	0x3d2e0c90	0.04249245
87	0x3c22281c	0.009897258
88	0x3ccedba9	0.025251226
89	0x3c506fc8	0.012721963
90	0x3c3e7bee	0.011626227
91	0x3cb14038	0.021637067
92	0xbcb0d397	-0.021585269
93	0xbd27216e	-0.040803365
94	0xbd2937ec	-0.041313097
95	0xbd419633	-0.04726238
96	0xbc787563	-0.015164706
97	0x3d0dc4d1	0.034611527
98	0xbcf146cb	-0.029452702
99	0xbcc4d3e5	-0.02402682
100	0x3d0658d4	0.032799557
101	0xbad80d0f	-0.0016483384
102	0xbce71c1f	-0.028211651
103	0xbc2ca5fb	-0.01053762
104	0xbbcb03e0	-0.0061955303
105	0x3d192b80	0.037395
106	0x3ca6df1f	0.020370064
107	0x3d56c480	0.05243349
108	0xbd282bc3	-0.04105736
109	0x3cb09d5a	0.021559406
110	0x3c190602	0.009339811
111	0xbca80eb0	-0.020514816
112	0xbcb0f36c	-0.021600448
113	0xbc52bc96	-0.012862345
114	0x3bec5cff	0.0072132344
115	0xbcfbbb3d	-0.03072893
116	0xbd41a5f5	-0.04727741
117	0x3ce3c0c2	0.027801875
118	0x3d45e469	0.048313532
119	0xbd42247d	-0.04739808

fc2.weight f4 [84, 120]
0	0xbba37149	-0.00498787
1	0xbb202b5b	-0.0024439904
2	0xbd331bbc	-0.04372762
3	0xbbf4638b	-0.0074581555
4	0x3dc7086c	0.09718403
5	0x3cb55360	0.022134483
6	0xbd03e4df	-0.03220069
7	0xbd982f3b	-0.074308835
8	0xbdceaf06	-0.10091977
9	0xbd5a7037	-0.053329673
10	0xbd52c69d	-0.051458944
11	0xbd50d339	-0.050982688
12	0x3e1e59c4	0.1546393
13	0xbd71a88e	-0.058998637
14	0x3e24107d	0.16021915
15	0x3e04f9e6	0.12985954
16	0x3daa6178	0.08319372
17	0x3b63e7db	0.0034775648
18	0xbc5c39ce	-0.013441516
19	0xbd046b95	-0.03232916
20	0x3d4dbef6	0.050230943
21	0xbd4dc283	-0.05023433
22	0x3ce3c123	0.027802056
23	0x3da83eed	0.08215127
24	0xbd6905a7	-0.056890156
25	0x3db7f00b	0.089813314
26	0xbd0c74bf	-0.034291025
27	0xbd6157cb	-0.055015367
28	0xbd9b0dc3	-0.07570984
29	0xbd1f08c5	-0.038826723
30	0xbcaa9be6	-0.020826291
31	0x3d03a8a0	0.032143235
32	0x3cfc0e70	0.030768603
33	0xbd1b19d9	-0.037866447
34	0xbdc5a0b3	-0.096497916
35	0xbd04d3b8	-0.032428473
36	0x3dc5dbf4	0.09661093
37	0x3df2e4a0	0.11860013
38	0xbc9ae8b5	-0.018909791
39	0x3cd13b85	0.025541076
40	0xbd273cdd	-0.040829528
41	0xbd7717d6	-0.060325466
42	0x3db8188e	0.089890584
43	0xbd3eab96	-0.046550356
44	0x3cfc0ef8	0.030768856
45	0x3e0ff650	0.14058805
46	0xbd49cdd7	-0.04926857
47	0x3d981ea7	0.074277215
48	0xbdb8a919	-0.09016628
49	0xbcc30125	-0.023804257
50	0xbdb0c3c7	-0.086310916
51	0x3d178808	0.036994964
52	0x3a870644	0.001030155
53	0xbcc71e29	-0.024306374
54	0x3ca2e6ec	0.019885503
55	0x3db77e25	0.08959607
56	0x3d268357	0.0406526
57	0x3e19bf28	0.15014327
58	0x3dfbf7ec	0.12303147
59	0xbda4a984	-0.08040145
60	0x3ddc54e1	0.10758377
61	0xbc939d88	-0.018019453
62	0x3b58e765	0.0033096906
63	0x3e3ef167	0.18646775
64	0x3aed691f	0.0018112994
65	0x3d829f05	0.06377987
66	0xbcc1673c	-0.023608796
67	0x3dd74948	0.10512024
68	0xbe741391	-0.23835589
69	0xbdc57fca	-0.096435145
70	0xbb5fdf91	-0.0034160356
71	0xbc95dd84	-0.018294103
72	0x3dc5839f	0.09644245
73	0xbcfc9501	-0.03083277
74	0xbe365566	-0.17806014
75	0x3de715de	0.11283468
76	0xbd03820a	-0.032106437
77	0xbbed5768	-0.0072430857
78	0x3ca93672	0.020655844
79	0x3d0ee1ff	0.034883495
80	0x3dc0a707	0.09406858
81	0x3d3cc294	0.046084
82	0x3dae8178	0.08520788
83	0x3dd29538	0.102823675
84	0xbdc5b6ef	-0.096540324
85	0x3db29ac8	0.087209284
86	0x3e1d959a	0.153891
87	0xbdcf1b34	-0.101126105
88	0x3d8f9aa2	0.07011916
89	0x3c25ee90	0.0101276785
90	0xbd0d3dd7	-0.034482803
91	0xbd3fec01	-0.04685593
92	0x3ce4e7eb	0.027942618
93	0x3db68728	0.08912498
94	0xbd5d0005	-0.053955097
95	0xbd04e80f	-0.03244787
96	0xbd5e0c3a	-0.05421088
97	0x3ce395c4	0.027781375
98	0x3c173e03	0.009231093
99	0x3d65b694	0.056082323
100	0xbd8364aa	-0.064156845
101	0x3cc87ecd	0.024474526
102	0xbdd5fe45	-0.10448889
103	0xbd174f71	-0.036940996
104	0xbd2c352c	-0.042042896
105	0xbd23b73e	-0.039969675
106	0x3a4711de	0.000759391
107	0xbd4c0950	-0.04981357
108	0x3cbe58d2	0.023235712
109	0x3e0b0476	0.1357592
110	0xbda72b48	-0.08162552
111	0x3cd7a226	0.026322436
112	0xbbf5186f	-0.0074797194
113	0xbc8d8775	-0.017276505
114	0xbd0ff792	-0.03514821
115	0xbd497434	-0.049183086
116	0x3db06761	0.08613468
117	0xbd1a390a	-0.037652053
118	0x3de01b0c	0.10942659
119	0x3d12c34f	0.035830792
120	0x3db10300	0.0864315
121	0x3d572509	0.052525554
122	0x3dea30ea	0.11435111
123	0x3d2ceaef	0.042216238
124	0x3cebedd5	0.02879993
125	0xbc5bd354	-0.013417084
126	0x3d094d7b	0.033521157
127	0x3b9008a0	0.0043955594
128	0x3c8f9841	0.017528655
129	0xbd47b7f3	-0.048759412
130	0x3c969346	0.018380772
131	0x3c127f60	0.008941501
132	0x3d014065	0.031555552
133	0xbd323b3e	-0.04351353
134	0x3d8fab66	0.070151135
135	0x3c4d00f0	0.012512431
136	0x3de89a62	0.11357571
137	0x3db253e5	0.08707408
138	0xbabf886a	-0.0014612798
139	0xbd8bca57	-0.06825703
140	0x3c04d86c	0.00810824
141	0x3d9e2fad	0.07723937
142	0x3cd29d0d	0.025709653
143	0xbdd8c58c	-0.10584554
144	0x3d845754	0.06461969
145	0xbb74f386	-0.0037376597
146	0x3dcbbc30	0.09948003
147	0xbd1c6a94	-0.03818758
148	0x3da5501a	0.08071919
149	0x3cb3c1d6	0.021943014
150	0x3c3d308d	0.01154722
151	0xbd031dd9	-0.032010887
152	0x3d8f46f0	0.06995952
153	0xbd472e70	-0.04862827
154	0x3cfcebf6	0.030874234
155	0x3d7e4af5	0.062083203
156	0x3d892f69	0.06698496
157	0x3cc61001	0.024177553
158	0x3db47147	0.088106684
159	0xbd183572	-0.037160344
160	0xbdd49b7a	-0.10381217
161	0x3c9e37a9	0.01931365
162	0x3cbc3b58	0.022977516
163	0x3da542ae	0.08069359
164	0x3d6c0f0e	0.057631545
165	0x3d806d3b	0.06270834
166	0xbd974b20	-0.07387376
167	0x3ca3dd71	0.020003052
168	0x3d3f8fd5	0.04676803
169	0x3d763aec	0.060114786
170	0xbcd0a8c2	-0.025471095
171	0xb97c6b18	-0.00024072488
172	0x3bb54d9f	0.005532935
173	0x3c79ca5e	0.015246002
174	0x3dab595d	0.08366654
175	0xbdbb6065	-0.09149245
176	0x3db10589	0.08643634
177	0x3cdb8cd5	0.026800552
178	0x3d709a17	0.0587407
179	0xbd6036d3	-0.054739784
180	0x3cb8e854	0.02257172
181	0x3d4fd8ce	0.05074387
182	0x3d9f290e	0.077715024
183	0x3d8d6080	0.069031715
184	0xbc676de2	-0.014125319
185	0xbd9eda35	-0.077564634
186	0xbca93b87	-0.020658268
187	0xbc741a7b	-0.014898892
188	0x3e0d8239	0.13819207
189	0xbc236943	-0.009973827
190	0xbc845d1d	-0.016157681
191	0xbd341adf	-0.04397094
192	0x3de128e6	0.10994129
193	0x3cf1f889	0.029537456
194	0x3db20309	0.08691985
195	0xbd10be77	-0.03533789
196	0x3d98ef27	0.0746749
197	0xbdb01fe0	-0.0859983
198	0xbd185960	-0.03719461
199	0xbd358564	-0.044316664
200	0xbd96f354	-0.0737063
201	0xbc24f4e4	-0.010068152
202	0x3d6c3250	0.05766517
203	0xbd76795c	-0.06017433
204	0xba7453dc	-0.00093203573
205	0xbdb30a79	-0.08742232
206	0x3d737c61	0.05944479
207	0xbd04bd4e	-0.032407098
208	0xbbe7bdb8	-0.007072177
209	0x3c29179d	0.010320571
210	0x3cca9c73	0.024732804
211	0x3bcc4d00	0.006234765
212	0xbd2ae846	-0.04172542
213	0x3d19d4b3	0.03755636
214	0xbcbf23d8	-0.023332521
215	0x3c719980	0.01474607
216	0xbd108140	-0.035279512
217	0xbd8ca23a	-0.0686688
218	0x3d6fa2e1	0.058504943
219	0x3c082c93	0.008311409
220	0x3b058202	0.002037168
221	0x3d94962b	0.07255205
222	0xbd1a9ae5	-0.037745375
223	0xbe1048ab	-0.1409022
224	0x3db3fd05	0.08788494
225	0xbde5eea2	-0.11227156
226	0x3c32f10d	0.010921729
227	0xbd623c99	-0.05523357
228	0x3da2b657	0.07944935
229	0xbd08f632	-0.033437915
230	0xbe1de49c	-0.15419239
231	0x3ddda1c5	0.10821871
232	0x3c1aa671	0.009439097
233	0x3c07d48f	0.008290424
234	0x3dcec18c	0.1009551
235	0xbdb5e621	-0.08881784
236	0x3a8201d3	0.0009918757
237	0xbdfd43b3	-0.12366428
238	0xbd0edc46	-0.034878038
239	0xbd9c48b2	-0.07631053
240	0xbdb3c4fa	-0.08777805
241	0xbd2b1217	-0.0417653
242	0xbdb5ea96	-0.08882634
243	0x3d451b14	0.048121527
244	0x3c01f603	0.007932189
245	0xbc9bf3a1	-0.01903707
246	0x3d8350a4	0.06411865
247	0xbd45b0f3	-0.048264455
248	0xbc733d61	-0.014846177
249	0xbd3afb1a	-0.045649625
250	0xbde2d207	-0.11075216
251	0xbc8be989	-0.017079132
252	0xbd1a7593	-0.037709784
253	0xbc221c91	-0.009894506
254	0x3d6a3d8d	0.057187606
255	0x3d01b9f0	0.031671464

fc2.bias f4 [84]
0	0x3d024a2c	0.031809017
1	0xbb92abe3	-0.004476057
2	0x3d1e3846	0.038627885
3	0x3d2123b0	0.039340675
4	0x3d0876b8	0.033316344
5	0x3d6c8703	0.057745945
6	0x3cd2a2f4	0.025712468
7	0x3b2f7a64	0.0026775831
8	0x3d78fcf4	0.06078811
9	0xbd89e86f	-0.06733786
10	0xbd1565b6	-0.036473952
11	0xbc5e49c1	-0.013567389
12	0x3e02f220	0.12787676
13	0xbd3ba95a	-0.045815803
14	0xbd88ab2b	-0.06673273
15	0xbcdf1998	-0.027233884
16	0x3d8cf9db	0.06883594
17	0xbda84069	-0.0821541
18	0x3c5a0e03	0.013309005
19	0x3da5182d	0.08061252
20	0xbd508e35	-0.05091687
21	0xb9c35e2e	-0.00037263468
22	0xbd88ddda	-0.0668294
23	0xbd6e29ba	-0.058145262
24	0xbc3bcd16	-0.0114624705
25	0xbb8764f3	-0.004131907
26	0x3ce972ba	0.028497089
27	0x3c41ac20	0.011820823
28	0xbcf4b944	-0.029873498
29	0x3cb5607a	0.02214073
30	0xbbf72cf8	-0.0075432025
31	0xbd866834	-0.06562844
32	0xbd565dd6	-0.052335583
33	0xbcd2e10e	-0.02574208
34	0xbc147cc0	-0.009062946
35	0xbc8f4f28	-0.0174938
36	0x3dcba1f5	0.09943
37	0xbc8985ed	-0.016787494
38	0x3d26109a	0.040543176
39	0xbdd01cc6	-0.10161738
40	0xbb95b7f0	-0.004569046
41	0xbd8308da	-0.06398173
42	0xbc206b05	-0.00979114
43	0x3cb85a02	0.022503857
44	0xbc80840c	-0.015687965
45	0xbd53de93	-0.051725935
46	0x3d7d2291	0.061800543
47	0x3bc5bed7	0.006034713
48	0xbc95ae07	-0.01827146
49	0xbb6b3ed0	-0.0035895593
50	0x3d713376	0.058886968
51	0x3bc76b7b	0.0060858107
52	0xbce57790	-0.028011113
53	0xba71e89e	-0.0009228083
54	0xbca97564	-0.020685859
55	0x3caa4c8d	0.020788455
56	0x3da19a81	0.078907974
57	0xbd4a817a	-0.049439885
58	0xbd80749b	-0.06272241
59	0x3d2b80e2	0.04187096
60	0x3d110ff9	0.035415623
61	0xbd38316f	-0.04496902
62	0x3d4ec205	0.050478
63	0x3e011ffd	0.12609859
64	0x3d095322	0.033526547
65	0xbdac785f	-0.084213965
66	0xbcbe436e	-0.023225512
67	0xbd63284b	-0.05545835
68	0x3d28c6df	0.041205283
69	0xbd0225f3	-0.031774472
70	0x3cb3ce19	0.021948861
71	0x3d32b9f3	0.043634366
72	0xbd2e9d6f	-0.04263061
73	0xbdb99bb5	-0.09062902
74	0x3b0ceb50	0.0021502562
75	0x3c71df00	0.01476264
76	0x3cf15e27	0.02946384
77	0xbb516960	-0.0031953678
78	0x3bf8ac31	0.007588886
79	0x3da22c60	0.0791862
80	0xbcca5af4	-0.024701573
81	0x3d5a7c52	0.053341217
82	0xbcf7f47f	-0.030267952
83	0x3dc390ad	0.09549079

fc3.weight f4 [36, 84]
0	0xbd91d7e8	-0.07121259
1	0xbd0f187e	-0.034935467
2	0xbe053b3c	-0.13010877
3	0x3d8787c6	0.066176936
4	0xbd14a31b	-0.036288362
5	0x3c3a9b1b	0.011389519
6	0xbbe8bee0	-0.007102832
7	0x3d47fae2	0.048823245
8	0xbdebf91b	-0.115221225
9	0xbd3fe0f0	-0.046845376
10	0xbce2eb87	-0.027700199
11	0x3cdab19a	0.026696015
12	0x3ccf300f	0.02529147
13	0xbe0e5d4d	-0.13902779
14	0x3d3af103	0.045640003
15	0x3d4bd439	0.04976294
16	0x3d4ad94b	0.049523633
17	0x3cb68db0	0.022284359
18	0xbbc5019e	-0.0060121557
19	0xbd92ae24	-0.07162121
20	0x3cf4e936	0.02989636
21	0x3df2c69c	0.11854288
22	0xbe4a978e	-0.19784376
23	0xbb1382a4	-0.0022508288
24	0x3d747c9b	0.059689146
25	0x3dd8ca75	0.105854906
26	0x3e02c7c9	0.12771524
27	0x3d1c2f99	0.03813133
28	0xbe70df83	-0.23522763
29	0x3add2c81	0.0016874225
30	0x3d46c2f9	0.048525784
31	0xbcb44cb0	-0.022009224
32	0xbdeb0d02	-0.114770904
33	0x3d4ba9ca	0.04972247
34	0xbbbc9deb	-0.00575613
35	0xbce20e8d	-0.027594829
36	0x3d7317cd	0.05934887
37	0x3d7d4df7	0.06184193
38	0x3d3fcb19	0.04682455
39	0xbcad6a99	-0.021168994
40	0x3be224bb	0.0069013513
41	0xbdd95ff2	-0.10614003
42	0x3da9b373	0.0828618
43	0x3d66c773	0.056342553
44	0xbe099728	-0.13436568
45	0xbcd8a00e	-0.026443508
46	0xbdafa1e1	-0.08575798
47	0x3d8cf8d8	0.06883401
48	0xbe16623c	-0.14685911
49	0xbe2b7c43	-0.16746621
50	0x3de728f2	0.112871066
51	0xbd43476c	-0.047675535
52	0xbe6a12e2	-0.22858766
53	0xbdae4be1	-0.085105665
54	0x3db96eac	0.09054312
55	0x3c65637b	0.014000769
56	0x3c94f50a	0.01818325
57	0x3da88a37	0.082294874
58	0xbe1fde2d	-0.15612097
59	0xbdef6b5b	-0.11690398
60	0xbda6f4ff	-0.08152198
61	0x3da90d55	0.08254496
62	0x3d1f398f	0.03887325
63	0xbe8db007	-0.2767336
64	0x3bf6e03e	0.007534056
65	0xbd085f79	-0.033294175
66	0x3d9d1614	0.07670227
67	0xbdbcffd3	-0.09228482
68	0xbbe4112f	-0.0069600563
69	0x3cae4434	0.021272756
70	0xbde58551	-0.11207069
71	0x3d1d943b	0.03847144
72	0xbd0826b0	-0.03324002
73	0xbd6f891f	-0.05848038
74	0x3d75fc81	0.06005526
75	0xb99dce4b	-0.00030099074
76	0x3e11329e	0.14179465
77	0xbd58c0b5	-0.052918155
78	0xbdd79d1b	-0.10528012
79	0xbceddfe3	-0.029037422
80	0x3d9bcd9d	0.07607577
81	0x3da26653	0.07929673
82	0x3d090b79	0.033458207
83	0xbc9f8d6d	-0.019476617
84	0x3de36a4d	0.1110426
85	0x3d4655b9	0.048421595
86	0xbe5065b3	-0.20351295
87	0xbe48bfb7	-0.19604383
88	0xbd029b20	-0.03188622
89	0x3d5a2f33	0.05326767
90	0xbdd4681d	-0.103714205
91	0x3da3be77	0.07995313
92	0xbe0348b8	-0.12820709
93	0xbd147d72	-0.036252446
94	0x3d500762	0.05078829
95	0xbe882bac	-0.2659582
96	0x3d34e1da	0.0441607
97	0x3cf41441	0.029794814
98	0xbd9b033f	-0.075689785
99	0x3db551a1	0.0885346
100	0xbcda373a	-0.026637662
101	0x3d386154	0.045014694
102	0xbe86b8ce	-0.2631287
103	0x3d5aa80d	0.053382922
104	0xbd635894	-0.055504397
105	0xbd84f7c6	-0.064925715
106	0x3da68ce6	0.08132343
107	0x3d8cb3f1	0.068702586
108	0x3df4713f	0.119356625
109	0x3db98e1b	0.090603076
110	0x3dbfc725	0.09364156
111	0x3d213cb8	0.039364547
112	0x3d45812b	0.048218887
113	0x3e2b7a7e	0.16745946
114	0x3b5ef29e	0.0034019123
115	0xbd82d848	-0.063889086
116	0xbd12fa06	-0.035882972
117	0xbe12f0c2	-0.14349654
118	0xbd72d9a8	-0.059289604
119	0xbe1fbd36	-0.15599522
120	0x3c91c4c4	0.01779402
121	0xbc36aa31	-0.011148975
122	0xbd78e509	-0.0607653
123	0x3d612c36	0.054973803
124	0x3d886325	0.06659535
125	0x3dcec602	0.10096361
126	0xbd6db31b	-0.058032136
127	0x3d388a79	0.045053933
128	0xbc675731	-0.014119909
129	0xbda8db58	-0.082449615
130	0xbdb65022	-0.08902003
131	0xbddabd12	-0.106805936
132	0x3d8fef62	0.070280805
133	0xbd7a532d	-0.06111448
134	0x3cf18244	0.02948106
135	0xbdbc5cee	-0.091974124
136	0x3d1a995a	0.037743904
137	0xbe4716f3	-0.19442348
138	0xbd57f61a	-0.052724935
139	0xbdde1468	-0.10843736
140	0xbe194c08	-0.1497041
141	0x3ca7d391	0.020486625
142	0xbca5ea1e	-0.020253237
143	0x3bbe755f	0.0058123316
144	0xbe1ec7ba	-0.15505877
145	0x3d7cda2b	0.0617315
146	0x3dca7071	0.09884728
147	0xbd8dff7c	-0.069334954
148	0x3d68d2b0	0.056841552
149	0xbd853e94	-0.065060765
150	0x3d47d84b	0.048790257
151	0xbb4feb49	-0.0031725934
152	0xbdf834d0	-0.12119448
153	0x3cd61a5f	0.026135622
154	0x3dad7a47	0.08470588
155	0x3d3c6b76	0.04600092
156	0x3c73c7ac	0.014879148
157	0x3daa3067	0.08310013
158	0xbd9efe16	-0.07763307
159	0xbda20597	-0.079112224
160	0x3db70560	0.08936572
161	0xba96e7e9	-0.0011513206
162	0xbdacfcc7	-0.08446651
163	0x3c000e0b	0.007815848
164	0xbe196e2c	-0.14983433
165	0x3cff5fba	0.031173576
166	0xbdc54996	-0.09633176
167	0x3dbb3bd8	0.09142274
168	0xbd71a012	-0.058990546
169	0xbd8b8086	-0.06811623
170	0xbe1da7df	-0.15396069
171	0xbcc9b322	-0.02462155
172	0x3dcd3996	0.10020749
173	0xbe8c543a	-0.2740801
174	0x3dd5cce7	0.10439473
175	0x3e273dfd	0.1633224
176	0xbe4dd5db	-0.2010111
177	0x3db61a63	0.088917516
178	0x3d42944b	0.047504704
179	0x3dff1b5f	0.124563925
180	0x3d496c2a	0.04917542
181	0x3ce6e6be	0.028186198
182	0x3d80b4df	0.062844984
183	0xbe0ce1c7	-0.13758002
184	0x3daa024f	0.083012216
185	0x3db2db4d	0.087332346
186	0x3d1742b5	0.03692885
187	0x3dee8fce	0.11648522
188	0x3d89b13a	0.067232564
189	0x3e2afe29	0.16698517
190	0xbe640ebc	-0.22271246
191	0x3db2b776	0.08726399
192	0x3dd6eee8	0.104947865
193	0xbe6b8655	-0.23000462
194	0x3cb21ccc	0.021742247
195	0x3da50fe9	0.08059675
196	0x3d51a352	0.051181145
197	0xbc4aa6e8	-0.012368895
198	0x3e002dae	0.12517425
199	0xbd1bbb3a	-0.03802035
200	0x3804d693	3.167109e-05
201	0x3d2aaf7b	0.041671257
202	0xbe2c5e2d	-0.168328
203	0xbe00e8d4	-0.12588817
204	0xbe6ce4bd	-0.23134132
205	0xbd94cf64	-0.07266119
206	0xbe5d121a	-0.21588936
207	0x3cff879e	0.031192597
208	0xbda94615	-0.0826532
209	0x3cf7df89	0.030257957
210	0x3cbd5f2d	0.023116672
211	0xbd8648e0	-0.065568686
212	0xbdbb53f7	-0.091468744
213	0xbd6daf4f	-0.058028515
214	0x3d7d6b25	0.06186976
215	0xbe117778	-0.1420573
216	0x3dace46d	0.08442006
217	0xbcc601db	-0.024170807
218	0x3d88d151	0.06680549
219	0x3ca50278	0.020142779
220	0x3c98fdf7	0.018675787
221	0xbd2c1e84	-0.04202129
222	0xbe6d10c0	-0.23150921
223	0xbe1dd66b	-0.15413825
224	0xbe16ea23	-0.14737754
225	0x3de6c74f	0.11268484
226	0xbe11cb5b	-0.1423773
227	0x3ab6825b	0.0013924347
228	0xbd545e2c	-0.05184762
229	0xbcc9f182	-0.024651293
230	0xbb8b280a	-0.0042467164
231	0xbb1ee992	-0.0024248105
232	0x3d851404	0.06497958
233	0xbe14dbdb	-0.14536993
234	0x3cd5e561	0.026110353
235	0xbe1fd9a6	-0.1561037
236	0xbca03513	-0.019556558
237	0xbd83aade	-0.06429075
238	0x3bc93bac	0.0061411466
239	0x3d32bbc3	0.043636095
240	0x3d7bf1fe	0.06151008
241	0xbcdd4ff5	-0.027015666
242	0x3cbd485b	0.02310579
243	0x3dfdc973	0.12391939
244	0xbd48f42a	-0.049060978
245	0x3ad4a8cc	0.0016224622
246	0xbea4edb1	-0.32212594
247	0xbe307a79	-0.1723422
248	0x3c5c95b1	0.013463424
249	0x3b0ed1fd	0.0021792643
250	0xbe737089	-0.23773398
251	0x3d1dcfdc	0.03852831
252	0xbd8eaa19	-0.06966037
253	0xbe1876d4	-0.1488908
254	0xbcde73af	-0.027154772
255	0xbe5b7213	-0.21430235

fc3.bias f4 [36]
0	0x3d4bf1c2	0.049791105
1	0xbd7c2cc9	-0.061566148
2	0x3d4ac243	0.04950167
3	0xbe12e79d	-0.14346166
4	0xbdc48538	-0.09595722
5	0x3dcad372	0.09903611
6	0x3dc1d446	0.09464316
7	0x3dacf438	0.084450185
8	0x3d83db1b	0.064382754
9	0xbcd56589	-0.026049392
10	0xbd954097	-0.0728771
11	0xbda1942b	-0.07889589
12	0xbcc06841	-0.023487212
13	0xbd8b89e3	-0.06813409
14	0xbe060f01	-0.13091661
15	0x3da9c291	0.08289064
16	0xbcc1dfe2	-0.023666326
17	0xbd8ec38f	-0.069708936
18	0xbd9e6c83	-0.07735541
19	0x3c15e697	0.009149215
20	0x3d156890	0.03647667
21	0xbc8fd4d4	-0.017557539
22	0xbd4153e0	-0.04719913
23	0x3cab9562	0.020945255
24	0x3d8be138	0.068300664
25	0x3db3d136	0.08780138
26	0x3d172ee2	0.036909945
27	0xbd8c1497	-0.06839865
28	0x3cc31dd5	0.023817936
29	0x3c97fdb7	0.018553598
30	0x3cac1db3	0.021010255
31	0x3cde929b	0.027169516
32	0x3c129300	0.00894618
33	0x3dc1f06c	0.09469685
34	0xbd00668e	-0.031347804
35	0x3dec02eb	0.11523994
